…
Tensorboard Path = ./results5.4/data.windows/rh/
Runtime Statistic File = ./results5.4/data.windows/rh/runstats.npy

Batch Size = 128

Minimal Distance = 0.000

####################################
###   Load and compiling model   ###
####################################

__________________________________________________________________________________________________
Layer (type)                    Output Shape         Param #     Connected to                     
==================================================================================================
input (InputLayer)              (None, 256, 6)       0                                            
__________________________________________________________________________________________________
recombine1 (Conv1D)             (None, 256, 29)      203         input[0][0]                      
__________________________________________________________________________________________________
conv1 (Conv1D)                  (None, 256, 29)      551         input[0][0]                      
__________________________________________________________________________________________________
data2 (Concatenate)             (None, 256, 64)      0           input[0][0]                      
                                                                 recombine1[0][0]                 
                                                                 conv1[0][0]                      
__________________________________________________________________________________________________
recombine2 (Conv1D)             (None, 256, 32)      2080        data2[0][0]                      
__________________________________________________________________________________________________
conv2 (Conv1D)                  (None, 256, 32)      6176        data2[0][0]                      
__________________________________________________________________________________________________
data3 (Concatenate)             (None, 256, 128)     0           data2[0][0]                      
                                                                 recombine2[0][0]                 
                                                                 conv2[0][0]                      
__________________________________________________________________________________________________
inception1_pool1 (MaxPooling1D) (None, 256, 128)     0           data3[0][0]                      
__________________________________________________________________________________________________
inception1_3x3_1 (Conv1D)       (None, 256, 16)      2064        data3[0][0]                      
__________________________________________________________________________________________________
inception1_5x5_1 (Conv1D)       (None, 256, 16)      2064        data3[0][0]                      
__________________________________________________________________________________________________
inception1_pool2 (Conv1D)       (None, 256, 32)      4128        inception1_pool1[0][0]           
__________________________________________________________________________________________________
inception1_1x1 (Conv1D)         (None, 256, 32)      4128        data3[0][0]                      
__________________________________________________________________________________________________
inception1_3x3_2 (Conv1D)       (None, 256, 32)      1568        inception1_3x3_1[0][0]           
__________________________________________________________________________________________________
inception1_5x5_2 (Conv1D)       (None, 256, 32)      2592        inception1_5x5_1[0][0]           
__________________________________________________________________________________________________
inception1_result (Concatenate) (None, 256, 128)     0           inception1_pool2[0][0]           
                                                                 inception1_1x1[0][0]             
                                                                 inception1_3x3_2[0][0]           
                                                                 inception1_5x5_2[0][0]           
__________________________________________________________________________________________________
inception2_pool1 (MaxPooling1D) (None, 256, 128)     0           inception1_result[0][0]          
__________________________________________________________________________________________________
inception2_3x3_1 (Conv1D)       (None, 256, 16)      2064        inception1_result[0][0]          
__________________________________________________________________________________________________
inception2_5x5_1 (Conv1D)       (None, 256, 16)      2064        inception1_result[0][0]          
__________________________________________________________________________________________________
inception2_pool2 (Conv1D)       (None, 256, 32)      4128        inception2_pool1[0][0]           
__________________________________________________________________________________________________
inception2_1x1 (Conv1D)         (None, 256, 32)      4128        inception1_result[0][0]          
__________________________________________________________________________________________________
inception2_3x3_2 (Conv1D)       (None, 256, 32)      1568        inception2_3x3_1[0][0]           
__________________________________________________________________________________________________
inception2_5x5_2 (Conv1D)       (None, 256, 32)      2592        inception2_5x5_1[0][0]           
__________________________________________________________________________________________________
inception2_result (Concatenate) (None, 256, 128)     0           inception2_pool2[0][0]           
                                                                 inception2_1x1[0][0]             
                                                                 inception2_3x3_2[0][0]           
                                                                 inception2_5x5_2[0][0]           
__________________________________________________________________________________________________
inception3_pool1 (MaxPooling1D) (None, 256, 128)     0           inception2_result[0][0]          
__________________________________________________________________________________________________
inception3_3x3_1 (Conv1D)       (None, 256, 16)      2064        inception2_result[0][0]          
__________________________________________________________________________________________________
inception3_5x5_1 (Conv1D)       (None, 256, 16)      2064        inception2_result[0][0]          
__________________________________________________________________________________________________
inception3_pool2 (Conv1D)       (None, 256, 32)      4128        inception3_pool1[0][0]           
__________________________________________________________________________________________________2016-05-06 05:57:30.410752: I tensorflow/stream_executor/cuda/cuda_gpu_executor.cc:857] ARM64 does not support NUMA - returning NUMA node zero
2016-05-06 05:57:30.414225: I tensorflow/core/common_runtime/gpu/gpu_device.cc:955] Found device 0 with properties: 
name: NVIDIA Tegra X2
major: 6 minor: 2 memoryClockRate (GHz) 1.3005
pciBusID 0000:00:00.0
Total memory: 7.67GiB
Free memory: 6.90GiB
2016-05-06 05:57:30.414282: I tensorflow/core/common_runtime/gpu/gpu_device.cc:976] DMA: 0 
2016-05-06 05:57:30.414311: I tensorflow/core/common_runtime/gpu/gpu_device.cc:986] 0:   Y 
2016-05-06 05:57:30.414344: I tensorflow/core/common_runtime/gpu/gpu_device.cc:1045] Creating TensorFlow device (/gpu:0) -> (device: 0, name: NVIDIA Tegra X2, pci bus id: 0000:00:00.0)

inception3_1x1 (Conv1D)         (None, 256, 32)      4128        inception2_result[0][0]          
__________________________________________________________________________________________________
inception3_3x3_2 (Conv1D)       (None, 256, 32)      1568        inception3_3x3_1[0][0]           
__________________________________________________________________________________________________
inception3_5x5_2 (Conv1D)       (None, 256, 32)      2592        inception3_5x5_1[0][0]           
__________________________________________________________________________________________________
inception3_result (Concatenate) (None, 256, 128)     0           inception3_pool2[0][0]           
                                                                 inception3_1x1[0][0]             
                                                                 inception3_3x3_2[0][0]           
                                                                 inception3_5x5_2[0][0]           
__________________________________________________________________________________________________
reduce (Conv1D)                 (None, 256, 32)      4128        inception3_result[0][0]          
__________________________________________________________________________________________________
dropout1 (Dropout)              (None, 256, 32)      0           reduce[0][0]                     
__________________________________________________________________________________________________
final1 (Conv1D)                 (None, 256, 24)      2328        dropout1[0][0]                   
__________________________________________________________________________________________________
dropout2 (Dropout)              (None, 256, 24)      0           final1[0][0]                     
__________________________________________________________________________________________________
final2 (Conv1D)                 (None, 256, 16)      1168        dropout2[0][0]                   
__________________________________________________________________________________________________
final3 (Conv1D)                 (None, 256, 1)       17          final2[0][0]                     
__________________________________________________________________________________________________
output (Reshape)                (None, 256)          0           final3[0][0]                     
==================================================================================================
Total params: 66,283
Trainable params: 66,283
Non-trainable params: 0
__________________________________________________________________________________________________

###############################
###   Building generators   ###
###############################
…
